checkpoint_actor.pth (torch_old, 169452 bytes, 6 tensors)

fc1.weight f4 [256, 33]
-0.07227265 0.15242232 0.080925286 -0.101863496 -0.025509926 -0.07192092 -0.0033245953 -0.016343964
0.07029589 0.14240058 -0.035472315 -0.0209204 0.05380205 -0.1291767 0.077988006 -0.066256456
-0.0023873786 0.029373486 0.014557951 0.013943937 0.053841278 0.004584072 -0.08182458 -0.04304126
0.04586046 -0.14771445 0.21158707 0.117890954 0.08929428 0.030105263 -0.09240107 0.0473411
-0.120573066 0.08409804 0.028740948 0.12735002 0.0013833682 0.12653866 0.029133702 0.07699659
0.07243408 0.05050293 -0.06949268 -0.005205013 0.012877766 -0.0004682767 -0.050058562 -0.0704066
0.033394936 -0.020939758 -0.004788983 -0.08108631 -0.036509868 -0.02193933 0.06143471 0.16160397
-0.126221 0.02354098 0.06845314 -0.0086187925 -0.1043612 -0.1147964 0.011548907 0.11773708
0.041798443 0.027590098 -0.022588473 -0.054515 -0.027040498 -0.008732846 -0.07120535 -0.097693816
-0.0738065 0.071101084 0.042681515 0.08630602 -0.0192157 -0.088205524 -0.011542703 -0.052974306
-0.09892482 0.04016303 -0.0075953295 0.041311592 0.058100425 -0.0027747857 -0.054758362 -0.12081063
0.06311201 -0.205379 -0.0018846743 -0.064586066 -0.056477543 -0.094460234 0.075277075 0.0069766343
0.10727629 0.005792819 0.18329881 0.04042302 -0.06442905 -0.13547261 -0.078960896 0.0063546775
-0.036474124 -0.14160866 0.09853881 0.0324357 0.057750918 -0.05560891 -0.02187643 -0.00057303975
-0.03512216 0.112863004 -0.102533974 -0.05008641 -0.041199 0.08433526 0.010399491 -0.022411054
0.0012645526 -0.034877602 -0.14623474 -0.032587104 0.058063935 -0.009183845 0.09341231 0.19329889
0.018407807 -0.06254159 -0.043636277 0.51966757 -0.030685632 0.042926315 0.03635561 0.07486857
0.0953645 0.02292351 -0.119049385 -0.07791171 0.029942596 -0.061300907 -0.04211812 -0.10029223
0.10902503 -0.16888951 0.057710636 -0.09520267 0.05722222 -0.07635295 0.06096461 0.07986019
-0.09205625 0.009472934 -0.14078017 0.041038726 0.11311284 0.10337905 0.031437386 -0.0076055876
-0.10297865 -0.0071124285 -0.03893906 -0.05046945 0.08974965 0.13716571 0.06581563 -0.1602572
-0.066403 0.08923174 -0.0071199234 -0.12178286 0.06943781 -0.028132563 0.14121614 -0.018394263
-0.02411344 -0.1128711 -0.07773367 -0.118146665 -0.13802674 0.08789489 -0.13571142 0.123465
-0.033459447 0.026814763 -0.091942064 0.09684451 -0.039826903 -0.08749364 -0.06954472 -0.042937916
-0.075126424 0.120167404 0.061666273 0.085858636 -0.061769 -0.25037122 -0.2576871 -0.021981431
0.11599008 -0.039388478 -0.029488472 0.064743504 0.06566343 -0.08197579 -0.051313926 -0.11625241
-0.06384512 0.0005854649 0.064709105 -0.19489974 -0.0153421415 0.12901483 0.058855977 0.013911023
-0.07012275 0.04082116 0.11899974 -0.025153473 0.031764075 0.009540469 0.07195716 -0.038619462
0.06581502 0.017395351 0.042124018 -0.0531547 0.036464654 -0.061846264 -0.27236792 -0.10246826
-0.0057446053 0.030485738 -0.0009693866 -0.10075625 -0.11752947 0.07651857 0.015892323 0.0035348835
-0.10774081 0.041594714 -0.15098025 0.03805004 -0.026675578 0.19401568 -0.06326701 -0.07047167
0.035511132 -0.14125122 0.027497446 -0.1067215 -0.16222863 -0.068147585 -0.012485113 -0.061828285
00000000: af03 94bd 9914 1c3e 28bc a53d cf9d d0bd
00000010: 31fa d0bc 464b 93bd 74e1 59bb c7e3 85bc
00000020: 4bf7 8f3d 75d1 113e 6b4b 11bd 4261 abbc
00000030: 8a5f 5c3d e646 04be 2db8 9f3d 77b1 87bd
00000040: 9175 1cbb aaa0 f03c 7984 6e3c 1c75 643c
00000050: ac88 5c3d fc35 963b a593 a7bd 084c 30bd
00000060: 2dd8 3b3d 7542 17be 48aa 583e d070 f13d
00000070: ebdf b63d 509f f63c c63c bdbd bee8 413d
00000080: 03ef f6bd 983b ac3d 2372 eb3c 0b68 023e
00000090: 2252 b53a 5a93 013e cda9 ee3c 63b0 9d3d
000000a0: 5258 943d 29dc 4e3d 2e52 8ebd d08e aabb
000000b0: 44fd 523c 0983 f5b9 350a 4dbd 5631 90bd
000000c0: 21c9 083d db89 abbc e7ec 9cbb 9410 a6bd
000000d0: 5f8b 15bd 1cba b3bc f6a2 7b3d 837b 253e
000000e0: 1440 01be 03d9 c03c 2931 8c3d d635 0dbc
000000f0: 53bb d5bd 601a ebbd a037 3d3c 2320 f13d
00000100: d834 2b3d a104 e23c 760b b9bc 1f4b 5fbd
00000110: 0984 ddbc 3614 0fbc 1cd4 91bd b213 c8bd
00000120: dd27 97bd 729d 913d d0d2 2e3d 36c1 b03d
00000130: 3e6a 9dbc 19a5 b4bd 9b1d 3dbc 96fb 58bd
00000140: 1999 cabd fd81 243d 3ee2 f8bb 5836 293d
00000150: b6fa 6d3d 2ed9 35bb 4e4a 60bd 906b f7bd
00000160: df40 813d df4e 52be 2d07 f7ba b345 84bd
00000170: ff54 67bd 5e74 c1bd de2a 9a3d 409c e43b
00000180: acb3 db3d b0d1 bd3b afb2 3b3e 9c92 253d
00000190: 61f3 83bd 55b9 0abe 40b6 a1bd e63a d03b
000001a0: e465 15bd dc01 11be b7ce c93d 4cdb 043d
000001b0: 3a8c 6c3d 2bc6 63bd 3336 b3bc 0c38 16ba
000001c0: 41dc 0fbd b824 e73d 55fd d1bd 6827 4dbd
000001d0: 48c0 28bd f7b7 ac3d a062 2a3c 6397 b7bc
000001e0: 58bf a53a d1db 0ebd 8fbe 15be 0e7a 05bd
000001f0: 73d4 6d3d d677 16bc f44e bf3d 25f0 453e
00000200: f8cb 963c ce15 80bd f4bb 32bd ef08 053f
00000210: 6f60 fbbc 81d3 2f3d 9fe9 143d b154 993d
00000220: 774e c33d 16ca bb3c 2ad0 f3bd 2d90 9fbd
00000230: 2d4a f53c a916 7bbd 0d84 2cbd 0366 cdbd
00000240: 8448 df3d 5ff1 2cbe fd61 6c3d 9ef9 c2bd
00000250: d961 6a3d ef5e 9cbd 07b6 793d bd8d a33d
00000260: fd87 bcbd 5d34 1b3c ad28 10be 3918 283d
00000270: b4a7 e73d 65b8 d33d 7dc4 003d 4b38 f9bb
00000280: 78e6 d2bd 600f e9bb 907e 1fbd 0eb9 4ebd
00000290: aace b73d 2b75 0c3e 58ca 863d 771a 24be
000002a0: 4cfe 87bd 21bf b63d 3f4e e9bb 4b69 f9bd
000002b0: 6935 8e3d 4376 e6bc f79a 103e 91af 96bc
000002c0: 8d89 c5bc f728 e7bd d532 9fbd e1f6 f1bd
000002d0: e256 0dbe 3c02 b43d eff7 0abe 38db fc3d
000002e0: c60c 09bd a2aa db3c 1f4c bcbd 6a56 c63d
000002f0: 8921 23bd de2f b3bd 766d 8ebd abdf 2fbd
00000300: e2db 99bd 541a f63d c695 7c3d a7d6 af3d
00000310: 7e01 7dbd a830 80be 90ef 83be 6712 b4bc
00000320: 358c ed3d d055 21bd cf91 f1bc 3e98 843d
00000330: 8c7a 863d ece2 a7bd 8d2e 52bd be15 eebd
00000340: 3bc1 82bd e279 193a 3586 843d cc93 47be
00000350: 9b5d 7bbc 771c 043e f712 713d 0feb 633c
00000360: 849c 8fbd 1734 273d 23b6 f33d a80e cebc
00000370: 0c1b 023d a14f 1c3c 475e 933d 712f 1ebd
00000380: 06ca 863d b280 8e3c 3c8a 2c3d beb8 59bd
00000390: f65b 153d 8252 7dbd cf73 8bbe e1da d1bd
000003a0: 3e3d bcbb 3abd f93c 6f1e 7eba 4b59 cebd
000003b0: 4ab3 f0bd c5b5 9c3d 9e30 823c 81a9 673b
000003c0: 37a7 dcbd 385f 2a3d 919a 1abe 5cda 1b3d
000003d0: be86 dabc 0cac 463e 2292 81bd 7353 90bd
000003e0: 1f74 113d 29a4 10be 5342 e13c cd90 dabd
000003f0: 431f 26be f690 8bbd 5c8e 4cbc a83f 7dbd

fc1.bias f4 [256]
-0.17957634 0.15894645 0.21006884 0.061926432 -0.04487123 -0.088324726 -0.13481908 -0.047573335
-0.0074012377 -0.11056639 0.06660274 0.025860414 0.10013073 -0.017010167 0.1224931 -0.054111246
0.0013371219 -0.08655336 -0.051291246 -0.047985896 -0.08222389 0.074210994 0.13009837 -0.08153574
0.18061754 0.13766122 -0.12721804 -0.07029563 0.08609161 0.07904932 0.18625228 -0.097789966
0.24021351 0.0856947 0.025185984 -0.102232546 0.06974804 -0.15173873 -0.058373846 0.1464938
-0.011868385 0.075616546 -0.17011502 0.12836857 -0.06375146 0.016287535 0.15592171 0.032505304
0.12451307 -0.03135651 -0.21522163 0.058188155 0.07190331 0.15663795 0.07323881 0.08607177
0.15405115 0.07111827 -0.0023070732 0.073735364 -0.03926593 -0.037396796 -0.07597048 0.15450947
-0.044337258 -0.25045258 0.17627807 -0.13984948 0.15002957 0.11571405 -0.011547495 -0.15223695
0.04828626 0.05057284 -0.074231684 -0.0775282 -0.04038055 -0.08235182 -0.13661301 -0.1054737
0.18692376 0.008046938 -0.04181752 -0.048205126 0.06698428 0.14039017 0.0556252 0.16483675
-0.019304581 0.038895488 0.07075034 -0.1969098 -0.074618466 0.092703976 -0.04079105 -0.0014208838
0.08577012 -0.10687039 -0.23172015 0.01664896 -0.08329556 0.0433604 0.19712268 0.046457376
0.086921535 -0.046078194 0.15448578 -0.0061213723 0.050919257 0.096864596 -0.09266272 0.26185435
0.04260619 0.10539969 0.26550505 0.14649223 0.052951146 0.08901072 0.22177483 -0.093357086
-0.0012782543 0.11291981 0.028298423 -0.037868973 0.06624295 -0.03063876 0.091075286 0.13164386
-0.01368486 -0.19067675 0.008908173 -0.09333886 -0.060416475 0.08422819 -0.20298456 0.0027960076
0.060272522 0.12445275 0.06899662 0.15011474 0.08673621 -0.20272169 0.131938 0.19950436
0.13145867 0.09864552 0.06551054 0.08546162 -0.047818076 -0.11837117 -0.09428349 -0.008957978
0.10457292 -0.027478356 -0.038861133 0.052606903 0.008985741 -0.024553224 -0.050040454 0.12579176
-0.18905021 -0.016262798 0.14458208 0.065130524 -0.075417146 0.0825466 -0.037721362 -0.033958357
-0.04957668 -0.28141966 0.04991621 0.07608228 0.091354616 0.18718421 0.20297746 0.13369682
0.2036034 0.08825113 -0.17946231 0.24373363 -0.05919927 0.0071635977 -0.058432188 0.17591543
0.17087917 -0.033798587 -0.050675042 -0.0076751895 -0.013614064 -0.1109524 -0.12939046 -0.1066975
0.11201767 0.22012714 0.09995599 0.05061683 -0.18150525 -0.07992981 -0.04702377 -0.24743491
-0.15374601 -0.122724585 -0.093199365 -0.10373391 0.0076949475 0.03743758 0.04233039 0.025065666
-0.11703737 -0.038521715 0.040174287 -0.18321522 0.02086549 -0.08397012 0.1924875 0.17419736
0.072381504 -0.0005608117 0.1627243 -0.13366544 0.07669598 0.19170776 0.10325015 0.10963452
-0.12703626 -0.0046707005 -0.17732206 -0.123150565 -0.08078833 0.073841184 0.043540634 0.12386646
-0.014808297 0.009856307 -0.030667966 0.030415516 -0.25788298 0.10922641 0.0064576906 -0.13726139
0.043942906 0.17297646 -0.02511097 0.08581062 0.09672265 -0.020351373 0.0790107 0.21047707
-0.027011208 -0.021934344 0.020757036 -0.23494692 0.19657 -0.122856595 -0.07892587 -0.08951453
00000000: dce2 37be dcc2 223e 491c 573e 92a6 7d3d
00000010: e5ca 37bd 98e3 b4bd 030e 0abe 42dc 42bd
00000020: 1586 f2bb a270 e2bd 0467 883d 38d9 d33c
00000030: 5711 cd3d e858 8bbc aadd fa3d c1a3 5dbd
00000040: 5e42 af3a e342 b1bd c516 52bd dc8c 44bd
00000050: 0065 a8bd effb 973d 8238 053e 36fc a6bd
00000060: cef3 383e 10f7 0c3e 7245 02be 28f7 8fbd
00000070: cc50 b03d 9ce4 a13d ebb8 3e3e 1b46 c8bd
00000080: 88fa 753e b480 af3d d652 ce3c 4c5f d1bd
00000090: 0fd8 8e3d 6661 1bbe 6a19 6fbd 7902 163e
000000a0: 9d73 42bc d9dc 9a3d a232 2ebe 0d73 033e
000000b0: 2090 82bd 706d 853c f1a9 1f3e 4824 053d
000000c0: b500 ff3d af6f 00bd 0f63 5cbe b456 6e3d
000000d0: 0b42 933d b365 203e 3bfe 953d 6546 b03d
000000e0: 96bf 1d3e 75a6 913d 4432 17bb 9102 973d
000000f0: 50d5 20bd 622d 19bd 6996 9bbd bb37 1e3e
00000100: fc9a 35bd 523b 80be 3d82 343e b434 0fbe
00000110: 5aa1 193e 7dfb ec3d b431 3dbc 01e4 1bbe
00000120: d0c7 453d 7725 4f3d c806 98bd 1bc7 9ebd
00000130: 1366 25bd 12a8 a8bd 48e4 0bbe 9802 d8bd
00000140: f168 3f3e 4ed7 033c d948 2bbd bd72 45bd
00000150: 0e2f 893d 71c2 0f3e 40d7 633d f7ca 283e
00000160: a424 9ebc e050 1f3d 8ee5 903d b9a2 49be
00000170: 91d1 98bd 95db bd3d 8414 27bd f33c baba
00000180: 3fa8 af3d ddde dabd 0c48 6dbe 6663 883c
00000190: dd96 aabd ad9a 313d 87da 493e 174a 3e3d
000001a0: eb03 b23d 7dbc 3cbd 8531 1e3e cb95 c8bb
000001b0: b690 503d f260 c63d f4c5 bdbd c611 863e
000001c0: d483 2e3d cbdb d73d 47f0 873e 0f02 163e
000001d0: 4de3 583d 414b b63d f118 633e 0032 bfbd
000001e0: 198b a7ba 8042 e73d 18d2 e73c 7f1c 1bbd
000001f0: 62aa 873d 23fe fabc ae85 ba3d a6cd 063e
00000200: 7736 60bc c440 43be 96f3 113c 7228 bfbd
00000210: 4477 77bd d47f ac3d 2fdb 4fbe 393d 373b
00000220: 52e0 763d 15e1 fe3d 1a4e 8d3d aeb7 193e
00000230: c1a2 b13d 4696 4fbe c11a 073e df4a 4c3e
00000240: 1a9d 063e aa06 ca3d 642a 863d 8006 af3d
00000250: e3dc 43bd 956c f2bd b417 c1bd 7cc4 12bc
00000260: 542a d63d 4a1a e1bc da2c 1fbd 567a 573d
00000270: ee38 133c d823 c9bc 38f7 4cbd 8ecf 003e
00000280: 6196 41be 8f39 85bc 530d 143e 2763 853d
00000290: 4e74 9abd 310e a93d b781 1abd eb17 0bbd
000002a0: eb10 4bbd 3d16 90be f174 4c3d 07d1 9b3d
000002b0: 2118 bb3d 38ad 3f3e 53d9 4f3e d2e7 083e
000002c0: 697d 503e 02bd b43d f8c4 37be 4f95 793e
000002d0: ef7a 72bd 9dbc ea3b 9756 6fbd 2d23 343e
000002e0: f3fa 2e3e 6370 0abd a290 4fbd 2880 fbbb
000002f0: 860d 5fbc 033b e3bd ef7e 04be 3884 dabd
00000300: 8569 e53d 0269 613e bab5 cc3d 9853 4f3d
00000310: 83dc 39be 3db2 a3bd ff9b 40bd 945f 7dbe
00000320: 986f 1dbe 0757 fbbd 4fdf bebd 7272 d4bd
00000330: e625 fc3b 2658 193d a262 2d3d 8356 cd3c
00000340: 4ab1 efbd f2c8 1dbd cb8d 243d c59c 3bbe
00000350: 1bee aa3c 87f8 abbd 711b 453e cb60 323e
00000360: c13c 943d 7003 13ba 33a1 263e 98df 08be
00000370: c812 9d3d 0a4f 443e d174 d33d 1088 e03d
00000380: cb15 02be ad0c 99bb ea93 35be 5d36 fcbd
00000390: 5a74 a5bd 0c3a 973d aa57 323d b3ad fd3d
000003a0: 809e 72bc 597c 213c 633b fbbc f629 f93c
000003b0: 3d09 84be 19b2 df3d 099b d33b 408e 0cbe
000003c0: 7afd 333d be20 313e 85b5 cdbc 7abd af3d
000003d0: 8616 c63d ecb7 a6bc 5dd0 a13d 4d87 573e
000003e0: 9c46 ddbc a7af b3bc a90a aa3c ed95 70be
000003f0: a549 493e 3d9c fbbd e3a3 a1bd 6553 b7bd

fc2.weight f4 [128, 256]
0.044516016 -0.0071893716 -0.07081263 -0.09278721 0.020819714 -0.054224476 -0.14626484 0.097116746
-0.038585525 0.056368735 -0.054668132 0.10717597 -0.0015095463 0.19578886 0.07739816 -0.01045102
-0.0043265778 -0.023249341 -0.036608465 0.005375365 0.03228025 0.09712112 -0.12858003 0.024581887
-0.0030499534 -0.055393882 0.26549426 -0.023533633 0.015628446 -0.08898236 -0.068794385 -0.061237384
0.032177657 0.07633178 -0.11028704 0.019585788 -0.09403847 0.15782855 0.07063969 0.019687923
-0.042672526 -0.02707435 0.0046934984 -0.011456686 0.034301452 0.0059495815 0.032124415 0.15576854
0.1551865 0.07098001 0.14784524 0.13149798 -0.0028480235 0.0900853 0.0050646653 0.025207285
-0.14892809 0.1310765 0.19982132 -0.0018615292 0.15580629 0.087511316 0.03172392 -0.045814656
0.006356219 -0.10543644 0.010832627 -0.026469985 -0.010327584 -0.08843642 0.07788433 0.0024239274
0.03044792 -0.064908 0.01418841 -0.0063836733 0.10021872 0.08379492 -0.051241487 0.09635743
0.041251864 0.04033004 -0.0034020366 0.065095596 -0.030808251 -0.066704534 0.014629129 0.052982796
-0.121639684 0.022552725 0.06269477 0.014757815 0.06657102 -0.035435095 -0.016994966 0.04810975
0.027727254 0.022209484 0.0984243 -0.04702898 -0.02676799 0.10705917 0.19824553 0.050626382
0.027630238 -0.008632061 -0.015688341 0.16401963 0.06198717 -0.03235736 0.05058898 0.11908749
-0.03900204 -0.039324246 0.07281428 0.073055424 -0.0032518802 0.1428182 -0.035611063 0.09322796
0.033268407 0.015133347 -0.0130308755 0.055037376 0.026901782 -0.020267356 -0.049411703 -0.047852345
0.25657266 -0.09047562 0.068824455 0.21679041 0.13743839 -0.14524561 0.030337533 -0.032060813
0.08899131 -0.06814456 -0.048171725 -0.013380199 0.08343218 -0.02022329 0.16223001 0.1794769
-0.027266283 -0.054980148 0.068342745 0.11474031 0.21110632 0.014632812 0.08013811 -0.09916465
0.094140865 -0.02218642 -0.052316945 0.014379508 -0.018684002 -0.018530374 0.02410067 0.0611037
0.029535733 0.17687769 0.08870994 0.084039845 -0.068364844 0.070828445 -0.09847961 -0.0046066223
-0.12445644 -0.14838284 0.038678158 0.09626755 0.022403771 0.08088803 -0.11550886 -0.02451072
0.025572086 -0.08651354 -0.040551074 0.008471761 -0.079910204 0.0041855653 -0.049435653 -0.16125749
-0.028032335 0.047622003 0.09279848 0.10228711 0.082327545 -0.08246251 0.03630524 -0.07660613
0.06705874 -0.0861844 -0.023113398 0.048624016 0.053435322 0.06123858 -0.041665852 0.14740078
0.035405915 0.01152846 0.05048264 -0.14389549 0.019790696 -0.041192148 0.14465952 0.18345869
0.04191802 -0.16239755 0.037820686 0.13510093 -0.058149274 -0.122803934 0.03241367 0.14449975
-0.0349875 0.059903663 0.047550954 -0.0027078004 0.17957826 0.14189337 0.08331148 0.12379875
0.027271837 -0.009593165 0.025261369 0.011649762 -0.015349645 0.14695388 -0.008195032 0.11237605
0.01837271 0.08302419 0.094787195 -0.056004487 -0.119802706 -0.0104582 -0.12462268 -0.006222817
0.14686458 0.0008507529 -0.0047488683 0.011749651 -0.07780877 -0.18323375 0.07208746 -0.08918728
0.050371427 0.07171249 0.03881049 0.17666148 0.02879126 0.0044298084 -0.025211938 -0.15422532
00000000: 6d56 363d d294 ebbb 3606 91bd 3907 bebd
00000010: 1b8e aa3c 7c1a 5ebd 73c6 15be 25e5 c63d
00000020: db0b 1ebd e7e2 663d b1eb 5fbd 137f db3d
00000030: f8db c5ba e07c 483e ed82 9e3d c13a 2bbc
00000040: f7c5 8dbb 6775 bebc c2f2 15bd d423 b03b
00000050: 4c38 043d 70e7 c63d 7caa 03be f45f c93c
00000060: bae1 47bb b2e4 62bd ddee 873e 9bc9 c0bc
00000070: 3a07 803c 623c b6bd 12e4 8cbd 0dd4 7abd
00000080: b8cc 033d d653 9c3d 2cde e1bd 6072 a03c
00000090: 3e97 c0bd cf9d 213e 8bab 903d 9148 a13c
000000a0: 63c9 2ebd 07cb ddbc ebcb 993b d3b4 3bbc
000000b0: ae7f 0c3d b5f4 c23b e494 033d ca81 1f3e
000000c0: 36e9 1e3e f85d 913d be64 173e 68a7 063e
000000d0: e8a5 3abb a47e b83d 7ef5 a53b 827f ce3c
000000e0: 9b80 18be eb38 063e f69d 4c3e 8efe f3ba
000000f0: af8b 1f3e 2239 b33d f1f0 013d 26a8 3bbd
00000100: d447 d03b 0fef d7bd 557b 313c 95d7 d8bc
00000110: 0735 29bc 271e b5bd d281 9f3d c1da 1e3b
00000120: eb6d f93c 7cee 84bd 8176 683c 222e d1bb
00000130: 793f cd3d ac9c ab3d 98e2 51bd 0b57 c53d
00000140: b7f7 283d 1d31 253d b4f4 5ebb d750 853d
00000150: 9661 fcbc 639c 88bd 04af 6f3c 7d04 593d
00000160: 3a1e f9bd 7ec0 b83c 1e66 803d c3ca 713c
00000170: 6356 883d 6424 11bd 0739 8bbc bb0e 453d
00000180: 4424 e33c aaf0 b53c ae92 c93d 76a1 40bd
00000190: 8b48 dbbc d741 db3d e000 4b3e 9c5d 4f3d
000001a0: cf58 e23c 7d6d 0dbc d684 80bc c3f4 273e
000001b0: 42e6 7d3d 2789 04bd 6436 4f3d 24e4 f33d
000001c0: 9ac0 1fbd 7612 21bd a71f 953d 159e 953d
000001d0: 7f1d 55bb ef3e 123e e8dc 11bd 4dee be3d
000001e0: 7444 083d dcf1 773c 747f 55bc df6e 613d
000001f0: 2061 dc3c ba07 a6bc ed63 4abd d200 44bd
00000200: 7e5d 833e 484b b9bd d6f3 8c3d 4efe 5d3e
00000210: a6bc 0c3e 44bb 14be 6b86 f83c 3352 03bd
00000220: 1341 b63d 608f 8bbd b74f 45bd 9f38 5bbc
00000230: 7ede aa3d 50ab a5bc a01f 263e cbc8 373e
00000240: 8a5d dfbc dd32 61bd 48f7 8b3d f8fc ea3d
00000250: 412c 583e 76be 6f3c 731f a43d d616 cbbd
00000260: edcc c03d 4cc0 b5bc 4b4a 56bd 0798 6b3c
00000270: 310f 99bc 03cd 97bc c56e c53c e047 7a3d
00000280: ecf4 f13c 6d1f 353e 8fad b53d 151d ac3d
00000290: de02 8cbd 810e 913d aeaf c9bd 26f3 96bb
000002a0: 05e3 febd acf1 17be fd6c 1e3d ec27 c53d
000002b0: 1d88 b73c a0a8 a53d e98f ecbd b5ca c8bc
000002c0: 8d7c d13c 032e b1bd e218 26bd 24cd 0a3c
000002d0: f6a7 a3bd 1127 893b 0a7d 4abd af20 25be
000002e0: 11a4 e5bc 4a0f 433d 210d be3d e87b d13d
000002f0: 589b a83d 1be2 a8bd ceb4 143d ade3 9cbd
00000300: 1856 893d 7281 b0bd 4f58 bdbc fa29 473d
00000310: ffde 5a3d 4ed5 7a3d d0a9 2abd 3bf0 163e
00000320: cb05 113d dee1 3c3c e2c6 4e3d 5759 13be
00000330: 1920 a23c 19b9 28bd a021 143e 98dc 3b3e
00000340: 3bb2 2b3d 8b4b 26be dde9 1a3d e657 0a3e
00000350: ef2d 6ebd a180 fbbd 32c4 043d bef7 133e
00000360: 0e4f 0fbd 8b5d 753d cac4 423d 5a75 31bb
00000370: 5de3 373e 7f4c 113e 369f aa3d 338a fd3d
00000380: 3069 df3c a62c 1dbc eef0 ce3c a5de 3e3c
00000390: 147d 7bbc 147b 163e 7544 06bc 6a25 e63d
000003a0: 5e82 963c 9608 aa3d ca1f c23d f664 65bd
000003b0: 1f5b f5bd df58 2bbc 2d3a ffbd c6e8 cbbb
000003c0: ab63 163e 1005 5f3a 659c 9bbb 9c81 403c
000003d0: 345a 9fbd a1a1 3bbe 97a2 933d d2a7 b6bd
000003e0: 4552 4e3d ffdd 923d c0f7 1e3d bfe6 343e
000003f0: a6db eb3c ed27 913b 4489 cebc 3eed 1dbe

fc2.bias f4 [128]
0.07780001 0.094947614 -0.014317175 0.030391691 0.05306344 0.011922194 0.010681301 0.12644747
-0.0476762 0.062966034 0.029925022 0.0010276007 -0.020431994 0.024742994 0.0700881 0.03940076
0.10483692 0.015048665 -0.01675594 0.015939064 0.046093278 -0.06759253 0.030106207 0.065732196
-0.019906834 -0.022943348 -0.04086768 -0.042142075 -0.020251106 -0.020439483 -0.02642839 0.061329372
0.0863905 -0.058369257 -0.014607037 -0.023295682 -0.026334122 0.005457741 -0.01726416 0.006799921
0.03941033 -0.052510243 0.008034448 0.033352513 0.066271625 0.06837941 -0.03769806 0.01524245
0.0008455733 0.042663552 -0.013448099 -0.011064117 -0.03015545 0.033401813 0.020534681 -0.031835042
-0.043526284 0.05276213 -0.028345425 -0.058932688 0.017407844 0.017129833 0.00018155953 -0.02292334
-0.0046890634 0.070843145 -0.064943835 -0.041619793 -0.026698828 -0.012549791 -0.0407713 0.029577376
0.014615944 0.0018420749 0.03996585 0.027605461 0.018879987 0.01498962 -0.0040772567 -0.046088297
0.054050136 -0.044494044 -0.030935783 0.02804605 -0.05344433 -0.05090628 0.06383503 -0.011668458
0.052599844 0.022561679 0.0019031382 0.11707198 0.016858967 -0.026102552 -0.00996807 0.025601383
0.011522995 0.04360394 -0.019541537 0.04662361 0.047727637 0.036214214 0.06857586 0.1131047
-0.06391365 0.019117415 -0.04768051 -0.13624398 0.032382548 0.07008126 -0.0039723525 0.07502872
0.063710965 -0.020008348 0.09566008 0.035361532 0.0027165452 -0.032479793 0.006589752 0.007112961
-0.0042634527 -0.031581767 -0.031386778 -0.009164541 0.019893257 0.017295264 -0.051650114 0.08727402
00000000: 9d55 9f3d e573 c23d 9692 6abc fff7 f83c
00000010: 0d59 593d 4e55 433c a000 2f3c 727b 013e
00000020: 1e48 43bd 56f4 803d 5225 f53c 8fb0 863a
00000030: ff60 a7bc d2b1 ca3c 5a8a 8f3d b162 213d
00000040: bdb4 d63d ad8e 763c c143 89bc a492 823c
00000050: 4ecc 3c3d f46d 8abd 4ba1 f63c 9a9e 863d
00000060: a813 a3bc b0f3 bbbc de64 27bd 2b9d 2cbd
00000070: a6e5 a5bc b470 a7bc 5a80 d8bc 8234 7b3d
00000080: 81ed b03d 9a14 6fbd 5b52 6fbc 96d6 bebc
00000090: a8ba d7bc dad6 b23b 916d 8dbc dfd1 de3b
000000a0: ba6c 213d fb14 57bd eba2 033c a59c 083d
000000b0: 6bb9 873d 810a 8c3d 4869 1abd 78bb 793c
000000c0: 77a9 5d3a fabf 2e3d 6a55 5cbc 4546 35bc
000000d0: 9008 f7bc 57d0 083d 5938 a83c 7665 02bd
000000e0: 9e48 32bd 1a1d 583d aa34 e8bc 6763 71bd
000000f0: e59a 8e3c dd53 8c3c 0461 3e39 bac9 bbbc
00000100: b7a6 99bb 3616 913d 4601 85bd 8479 2abd
00000110: 80b7 dabc a39d 4dbc cfff 26bd 414c f23c
00000120: b677 6f3c c771 f13a 3bb3 233d d924 e23c
00000130: 34aa 9a3c 0697 753c 829a 85bb 15c7 3cbd
00000140: ad63 5d3d 633f 36bd 0a6d fdbc d4c0 e53c
00000150: 71e8 5abd 1a83 50bd f1bb 823d 0f2d 3fbc
00000160: ef72 573d 45d3 b83c b972 f93a 6fc3 ef3d
00000170: d11b 8a3c 05d5 d5bc 1e51 23bc feb9 d13c
00000180: f2ca 3c3c 0c9a 323d 9315 a0bc 66f8 3e3d
00000190: 0e7e 433d 5b55 143d 8071 8c3d 70a3 e73d
000001a0: 29e5 82bd 209c 9c3c a34c 43bd 8b83 0bbe
000001b0: 90a3 043d c386 8f3d 822a 82bb a8a8 993d
000001c0: e57a 823d 8ce8 a3bc 6fe9 c33d 41d7 103d
000001d0: 1108 323b 8809 05bd d9ee d73b d713 e93b
000001e0: 6fb4 8bbb e25b 01bd 6c8f 00bd df26 16bc
000001f0: 2ff7 a23c ccae 8d3c 128f 53bd b9bc b23d

fc3.weight f4 [4, 128]
-0.09951238 -0.109343454 -0.058033712 -0.02909992 0.32230127 -0.042578388 0.1078784 -0.19159211
0.40630972 -0.11414082 0.020108273 0.07043982 0.40523952 0.1779085 0.15282872 0.12888256
0.78900784 -0.39859393 0.08298745 -0.0069914674 -0.06943812 -0.052594483 0.05572455 -0.08688963
-0.050417375 0.3722183 0.04068604 0.4247097 -0.07052705 -0.15747389 0.36641175 -0.22902043
0.06332074 0.09750879 0.105420105 0.4440329 -0.07771063 0.13457562 -0.085671246 0.26241753
-0.13924414 0.011380781 0.10059258 0.23581302 0.015057061 -0.044652738 0.16848058 -0.26389462
-0.034600332 0.048089847 0.040112704 -0.052430548 0.12938115 0.33422837 -0.0777962 0.21458414
0.22405535 0.37284407 0.21348621 0.3799838 0.4948848 -0.014716534 -0.046965055 -0.050365318
-0.064297326 0.078548215 -0.16998334 0.2550649 -0.29393226 0.4244465 0.39178896 -0.14486611
-0.0036062137 -0.24648423 -0.18801919 -0.20823379 0.06587893 0.36212736 -0.25377744 0.34350607
-0.6122167 -0.16783845 0.18962862 -0.10397972 0.1616732 0.020471841 -0.16103195 -0.048347976
-0.35962734 0.07109012 -0.047371916 -0.14211343 -0.14434601 -0.06544337 -0.12962988 -0.3286144
0.08235485 -0.12247027 -0.28206176 0.47024882 0.32728848 0.074248955 -0.118887216 0.20858578
-0.07783003 -0.123950884 0.022877974 0.028380832 -0.019404141 0.07577002 0.25321245 -0.18747377
0.2859558 0.21591783 -0.17634588 -0.08780905 0.008846858 0.1966496 0.03320713 -0.24800871
-0.060703292 -0.11056091 0.1419936 0.28157505 -0.13360463 0.29900354 0.47390074 -0.112645045
-0.03390427 0.070842616 -0.13220936 -0.2473284 0.10599439 -0.0009886267 0.2909349 0.058495186
-0.009187974 -0.35684603 0.34539652 -0.23972806 0.31314257 -0.0022840037 0.487604 0.27895698
0.38033667 -0.05306372 -0.056754604 0.028057873 -0.08558892 -0.40112677 -0.08286031 -0.039811827
-0.09928647 -0.28968444 -0.19351707 -0.02649964 -0.06875506 -0.14948244 -0.028545687 0.22790685
0.19267571 0.07598852 0.3144786 0.21562421 -0.053559367 -0.07208344 0.011822271 -0.12598157
0.14297897 0.542273 0.12792483 0.124696285 0.04989388 0.09496942 0.26233354 -0.10038493
0.027649498 0.30303976 0.1634184 0.39946398 -0.15252073 0.23914348 -0.06316087 -0.10682256
-0.010497571 -0.022755628 -0.16959082 -0.73424035 -0.100159295 0.056892786 0.0191129 0.13304952
0.045987714 -0.2481014 -0.24225065 -0.32374567 0.072237626 0.21737084 -0.18411626 -0.02227263
-0.19485901 0.119269505 0.16164698 -0.16178325 -0.14897148 0.0150387045 0.15049103 -0.09267208
-0.037428375 -0.049631458 0.25430426 0.05779922 -0.07219534 -0.26335976 -0.028467635 0.2845237
0.036022138 0.19434571 -0.12563127 -0.029480143 -0.059028756 -0.07938829 -0.035458382 -0.13973425
0.111511454 0.041984126 -0.043957654 -0.1373573 -0.41081718 -0.3786066 -0.038247503 -0.38260493
-0.14415586 -0.10160041 0.013526755 0.04078879 0.04034099 -0.12923162 0.016000716 0.110100396
0.09480837 -0.44228604 -0.017790638 0.6161807 -0.06867809 -0.27866912 0.06352116 -0.21067223
0.13140982 -0.08264116 -0.16103177 0.12320284 0.652275 -0.24620485 0.19526541 0.06930382
00000000: 26cd cbbd 76ef dfbd c2b4 6dbd f562 eebc
00000010: ac04 a53e ad66 2ebd 5aef dc3d b930 44be
00000020: d407 d03e aac2 e9bd 1bba a43c c142 903d
00000030: 8e7b cf3e a52d 363e 227f 1c3e caf9 033e
00000040: 6bfc 493f 8114 ccbe 53f5 a93d ae18 e5bb
00000050: 9335 8ebd 506d 57bd 6d3f 643d 31f3 b1bd
00000060: 7382 4ebd 6693 be3e 68a6 263d 8d73 d93e
00000070: 7c70 90bd d640 21be 529a bb3e 5584 6abe
00000080: 4eae 813d b0b2 c73d 7fe6 d73d 4858 e33e
00000090: c026 9fbd 31ce 093e 6874 afbd 975b 863e
000000a0: 0496 0ebe 7576 3a3c 7c03 ce3d f878 713e
000000b0: e4b1 763c cae5 36bd 2c86 2c3e 321d 87be
000000c0: 14b9 0dbd dcf9 443d 384d 243d 6ac1 56bd
000000d0: 7e7c 043e fb1f ab3e 9d53 9fbd f2bb 5b3e
000000e0: c46e 653e 6be5 be3e 219c 5a3e 3d8d c23e
000000f0: 8a61 fd3e 9e1d 71bc 6e5e 40bd dd4b 4ebd
00000100: 51ae 83bd e3dd a03d 1d10 2ebe de97 823e
00000110: 4a7e 96be 0d51 d93e 9098 c83e c857 14be
00000120: 3a56 6cbb 5d66 7cbe 1a88 40be 3d3b 55be
00000130: 88eb 863d c268 b93e 1eef 81be 07e0 af3e
00000140: 3cba 1cbf d8dd 2bbe 012e 423e 52f3 d4bd
00000150: a98d 253e 90b4 a73c 8fe5 24be 8708 46bd
00000160: 1321 b8be b297 913d 0e09 42bd 2f86 11be
00000170: 71cf 13be 2c07 86bd b2bd 04be 2640 a8be
00000180: a9a9 a83d b1d1 fabd 666a 90be 74c4 f03e
00000190: 5b92 a73e d60f 983d 247b f3bd 8397 553e
000001a0: 5a65 9fbd f6d9 fdbd 976a bb3c eb7e e83c
000001b0: 6ff5 9ebc 502d 9b3d 10a5 813e 20f9 3fbe
000001c0: cc68 923e 9019 5d3e 0494 34be 3bd5 b3bd
000001d0: 69f2 103c 835e 493e 3304 083d fff5 7dbe
000001e0: 04a4 78bd c26d e2bd c566 113e 9b2a 903e
000001f0: a7cf 08be fe16 993e 1ea3 f23e 72b2 e6bd
00000200: 34df 0abd ef15 913d e461 07be a843 7dbe
00000210: 9613 d93d cf94 81ba 6bf5 943e a698 6f3d
00000220: 2889 16bc 86b4 b6be d0d7 b03e 467b 75be
00000230: 3954 a03e 39af 15bb 3ba7 f93e 73d3 8e3e
00000240: 7dbb c23e 5859 59bd 8477 68bd a0d9 e53c
00000250: 3e49 afbd 7d60 cdbe abb2 a9bd ba11 23bd
00000260: b456 cbbd 8551 94be 5729 46be c615 d9bc
00000270: 74cf 8cbd ed11 19be a5d8 e9bc 6a60 693e
00000280: c84c 453e df9f 9b3d 5703 a13e 98cc 5c3e
00000290: 1161 5bbd 7ca0 93bd 33b2 413c 5001 01be
000002a0: 1469 123e 67d2 0a3f bafe 023e c460 ff3d
000002b0: 865d 4c3d 547f c23d 9550 863e 9d96 cdbd
000002c0: 3381 e23c 0728 9b3e 2757 273e 8b86 cc3e
000002d0: 652e 1cbe 07e2 743e 7c5a 81bd c9c5 dabd
000002e0: 01fe 2bbc 036a babc 37a9 2dbe 2df7 3bbf
000002f0: 5120 cdbd 6908 693d a892 9c3c 223e 083e
00000300: 9d5d 3c3d 4b0e 7ebe 8e10 78be fec1 a5be
00000310: 52f1 933d 7696 5e3e f988 3cbe 1775 b6bc
00000320: 1f89 47be 9243 f43d c986 253e 82aa 25be
00000330: fb8b 18be e664 763c 521a 1a3e dcca bdbd
00000340: 7f4e 19bd 5b4a 4bbd 2b34 823e e0be 6c3d
00000350: 27db 93bd 17d7 86be f534 e9bc 17ad 913e
00000360: f38b 133d 9002 473e 7ca5 00be 5780 f1bc
00000370: 23c8 71bd 5496 a2bd cf3c 11bd 7f16 0fbe
00000380: 1e60 e43d 8cf7 2b3d f10c 34bd 64a7 0cbe
00000390: a156 d2be b9d8 c1be 6aa9 1cbd cbe4 c3be
000003a0: 989d 13be e013 d0bd 539f 5d3c 2512 273d
000003b0: 983c 253d 4b55 04be ef13 833c 517c e13d
000003c0: e42a c23d 5173 e2be acbd 91bc 05be 1d3f
000003d0: 19a7 8cbd b8ad 8ebe 6217 823d 76ba 57be
000003e0: 4c90 063e c53f a9bd 83e5 24be c551 fc3d
000003f0: 7ffb 263f 201d 7cbe a8f3 473e 29ef 8d3d

fc3.bias f4 [4]
0.00945268 -0.056199044 -0.009075335 -0.0078522535
00000000: 6adf 1a3c f830 66bd b7b0 14bc bda6 00bc
