checkpoint_critic.pth (torch_old, 169958 bytes, 5 tensors)

fcs1.weight f4 [256, 33]
000000 01 70 0a bb c4 8a f3 3d e9 3b 13 be 01 46 a2 bc
       -0.0021123888 0.11891702 -0.14378323 -0.019808771
000010 c6 a8 97 bc 26 ba 4c 3c 5d e7 ee bc 28 52 ec 3c
       -0.018513095 0.012495553 -0.029163057 0.028847769
000020 fc 4e ee bd ac 6f bf 3c 93 09 8b ba ae 56 9b 3d
       -0.11636159 0.023368679 -0.0010607712 0.07584892
000030 70 cc d1 bc 31 a2 9f bc a2 4b 2e bb 05 60 89 bd
       -0.025610179 -0.019486519 -0.0026595374 -0.067077674
000040 65 6c a4 ba 34 4c 58 bd 18 9f 1b bd 14 7e 25 bc
       -0.0012544511 -0.052807048 -0.03799352 -0.01010086
000050 ae c7 5c bd 11 0a 19 bd 37 dc 18 3d 7a 39 22 3d
       -0.053901367 -0.037363116 0.03731939 0.039605595
000060 ae 86 9c ba 33 45 11 bd 57 51 aa bb c9 16 6d 3b
       -0.0011941993 -0.035466384 -0.0051976847 0.003617691
000070 d9 d4 a3 3d 48 d3 57 bd 4c 25 90 3d 94 01 42 3d
       0.07999582 -0.052691728 0.07038364 0.047364786
000080 06 65 cd bb 16 e3 41 bc 45 fc 08 bd ad 2f 96 bc
       -0.0062681464 -0.011833927 -0.033443708 -0.01833328
000090 14 a8 33 3c 63 fa e6 bc 4b 94 62 bd ea ee a3 3b
       0.010965366 -0.028195566 -0.055317204 0.005002846
0000a0 7c d4 72 3c 6d 50 63 3d 8c 0b b7 bc db e6 a9 bc
       0.014821168 0.055496622 -0.022344373 -0.020739963
0000b0 b1 55 34 bd 14 9d 81 bd 5e d1 0c 3d d7 76 30 3c
       -0.044027034 -0.063287884 0.034379356 0.010770521
0000c0 7e a2 df bc 43 af 44 3c f1 5d 95 bc 04 c0 ec bb
       -0.027299162 0.012004676 -0.018233271 -0.0072250385
0000d0 ef 1d 71 bc ae 0d b7 bc 74 68 44 bd 2c 8d 14 bd
       -0.014716609 -0.02234539 -0.047951177 -0.036267444
0000e0 f2 6d df 3c 7e b4 e8 ba 7b 0e 12 bd 37 c1 7a 3d
       0.027274106 -0.0017753986 -0.03565834 0.06121942
0000f0 68 58 18 bd a6 99 6f 3d a2 30 20 bd aa 43 65 3d
       -0.037193686 0.05849614 -0.03910888 0.055972733
000100 a6 f9 62 3d fa 35 1e be d6 bc 3d bd 87 35 0c bd
       0.055413865 -0.15450278 -0.046322666 -0.034230735
000110 9d d0 6f bd 79 7d 2f 3d a0 5d 4f 3d eb 79 61 bd
       -0.05854856 0.04284427 0.050626397 -0.05504791
000120 6b b4 30 bd 93 5c 9a bd d4 c7 4f bc db eb d7 bb
       -0.04314081 -0.075371884 -0.01268192 -0.0065893955
000130 ad 99 17 bd 98 57 f6 bb 26 de bf ba 35 e9 a8 3c
       -0.03701179 -0.007517766 -0.0014638349 0.020619014
000140 eb 72 ec ba 71 eb 84 3d e9 07 be 3c 66 74 b1 bc
       -0.0018039619 0.064902194 0.023197131 -0.021661948
000150 75 2e d9 3c a6 aa 8d 3c 22 41 b1 3c 53 37 80 bc
       0.02651141 0.017293286 0.021637503 -0.01565138
000160 05 a9 a1 bc f0 63 6c bb 40 06 9d 3c c4 e0 8e 3c
       -0.019733915 -0.003607031 0.01916802 0.017441161
000170 d3 cf 57 3d 0d a4 78 bd 5b 6d ff 3d 04 a3 e4 3c
       0.05268843 -0.060703326 0.1247203 0.027909763
000180 ac 3f 14 bc de 1a 64 bd 97 d0 ab ba 1e 30 a8 3d
       -0.009048384 -0.055689685 -0.0013108429 0.082123026
000190 7b e8 a0 3d 19 ed d1 bd 73 d3 d4 bd 87 3c 51 bd
       0.07856842 -0.10250301 -0.10391893 -0.051083114
0001a0 76 3d 97 3b 9a cd 0c bd bd ec 1e 3d b5 e6 35 bd
       0.004615481 -0.034375764 0.03879999 -0.044409472
0001b0 48 2b 2b bd e6 25 99 3c d8 00 9e bc c1 b9 15 3d
       -0.041789323 0.01869483 -0.019287512 0.0365541
0001c0 c7 8e 8e bd bc 05 35 3d 02 3b 37 b9 12 53 58 3d
       -0.06960826 0.04419492 -0.00017474222 0.052813597
0001d0 f9 87 04 bd 27 57 cf bd 8f 86 2b bd da 35 94 3c
       -0.032356236 -0.10124045 -0.041876372 0.018092085
0001e0 a0 c3 b7 bb 49 db bb 3b 3c 61 63 3c 6c 43 7f 3b
       -0.005608037 0.005732928 0.013878163 0.0038950099
0001f0 cb 7d bd b9 41 bb 58 bd 26 59 1d bc 60 ed e4 ba
       -0.00036142612 -0.052912954 -0.009603774 -0.0017465763
000200 88 4e df bc ba 41 99 bd ec 83 78 bd 0f 42 24 be
       -0.027259126 -0.074832395 -0.060672686 -0.16040824
000210 e4 f5 d9 bb 78 0d 08 bc 0c 3a 91 3d 04 51 e4 bd
       -0.006651627 -0.008303992 0.0709115 -0.11148265
000220 19 d4 a2 bb 81 95 53 3a 9d a5 c5 3c 66 56 4d bb
       -0.0049691317 0.0008071289 0.024126822 -0.0031332015
000230 e5 46 fb ba 44 fc 2f 3c 07 bb c5 bc 87 56 64 bd
       -0.0019170908 0.010741297 -0.024137033 -0.05574658
000240 a1 63 ca bb 8b 16 cd b8 cc 61 58 3d 29 88 5c bd
       -0.0061764275 -9.779361e-05 0.05282764 -0.05384079
000250 ba 95 b6 3b 3b 4a c2 bc 7f e5 ba bb 96 77 e4 bb
       0.005572048 -0.023717036 -0.0057036276 -0.0069722636
000260 11 a0 73 3c 94 30 c8 3d ee 6c ea bc f4 0e a1 3d
       0.014869706 0.097748905 -0.028616395 0.0786418
000270 6c 26 7d 3d 68 f4 d9 bc 1f 2b b2 3d e7 56 a2 bb
       0.06180422 -0.0266058 0.08699631 -0.004954207
000280 60 af 9c 3c 2c 91 5d bd 62 a7 ce 3b ca b1 6c 3d
       0.019126594 -0.054093525 0.0063065747 0.05778674
000290 73 e1 b7 be 02 d8 27 bd 93 d1 89 3c 00 c7 0d 3d
       -0.35914192 -0.040977485 0.016823566 0.03461361
0002a0 0b 70 03 3c 08 79 9d bc df 05 4f bd bc 73 8c bd
       0.008022319 -0.019222751 -0.05054271 -0.06858012
0002b0 4a 89 45 3d 8c 9b ee ba 08 d1 1b 3c 2d 66 a5 3c
       0.048226632 -0.0018204316 0.009510286 0.020190323
0002c0 58 51 3c 3a df 0a 6b 3c 9c ef 8c 3d 22 4d a9 bc
       0.0007183752 0.014345854 0.06881639 -0.020666663
0002d0 f6 c8 98 bd b3 8d 01 bd 73 16 cc 3b d7 f5 44 3d
       -0.07460205 -0.031629276 0.006228262 0.048086014
0002e0 df ed d3 3c 85 48 99 bc a9 55 8b 3d f5 70 a5 bc
       0.025870262 -0.018711338 0.06803448 -0.020195464
0002f0 3b b3 06 3d 29 34 c2 3c 0c a5 e0 3b 67 25 24 bc
       0.03288577 0.023706513 0.0068556126 -0.010018683
000300 dc 63 cb 3c c8 48 9f 3d ba 88 07 3d a2 07 f2 3c
       0.02482789 0.07777554 0.033089377 0.029544655
000310 c6 b5 38 3d b8 c8 f6 be 0b 65 31 bd 00 21 21 bd
       0.045095228 -0.4820001 -0.043309253 -0.039338112
000320 dd 98 03 bd f7 f8 6e 3c 80 78 1b bc be 3d 73 3c
       -0.032128204 0.014585725 -0.009489179 0.014846263
000330 9a cc b9 bc c5 12 61 3b 64 64 21 3d 9e 17 c5 bd
       -0.02268057 0.0034343463 0.03940238 -0.09623645
000340 0f 07 e3 3c a2 28 1b bd f4 47 b0 bc 93 bb 4f bc
       0.027713327 -0.037880547 -0.021518685 -0.0126789985
000350 88 0d 72 3d 5d 2e cd 3b 11 4a c9 3c 68 0b 42 bb
       0.059094936 0.0062616304 0.02457145 -0.002960885
000360 dd ab e0 bc e6 54 c0 bc f5 22 4f bc b5 9d 4c 3d
       -0.0274257 -0.023477983 -0.012642612 0.04995509
000370 c0 37 c2 bd b0 ae 2f bd 32 80 59 3c 32 8e f8 3c
       -0.0948329 -0.042891204 0.013275193 0.030341242
000380 7a 93 6d bd 21 8d 7c bb 0e 33 e4 3d e4 5a d3 3c
       -0.058001973 -0.0038536268 0.111425504 0.025800176
000390 f9 c8 89 3d e2 bc 0e 3d 69 2d a4 ba 13 be 25 bc
       0.067277856 0.0348481 -0.001252574 -0.010116118
0003a0 51 4c ad 3d d0 01 9e 3c 8c f6 89 bd 50 5c 72 bd
       0.08461822 0.019287974 -0.06736478 -0.059170067
0003b0 df f6 bb bd 30 a1 d1 bd a1 9e 4e 3a 5c d5 5d 3e
       -0.09177946 -0.10235822 0.0007881914 0.21663421
0003c0 9e 99 b4 3c ad fe 70 3d 44 41 b6 3d 47 42 34 3d
       0.022045907 0.058836628 0.08899167 0.04400852
0003d0 1c cc 04 bd dd 48 c5 bb 98 fe 96 bd 79 c9 c2 3d
       -0.032421216 -0.006020649 -0.07372779 0.09511084
0003e0 7c 90 83 3d 2a 3b b0 3c d4 f9 39 bd 8e 66 60 3c
       0.064240426 0.021512587 -0.04540427 0.013696326
0003f0 c9 d9 53 bc 62 8b 9e 3a 0a ba 24 bd ad fd 96 bd
       -0.012930342 0.0012095983 -0.040216483 -0.073726036

fcs1.bias f4 [256]
000000 76 7d 77 bd e3 90 ea 3d 4b b8 34 3e f7 3b 6d 3d
       -0.060422383 0.11453416 0.17648427 0.057918515
000010 27 2e db bc 2c e5 17 be 44 e4 fd bd 29 5a 01 be
       -0.026755406 -0.14833516 -0.12397054 -0.1263205
000020 ce c1 b6 bd 86 61 41 be d9 e4 96 3b 01 c1 83 bd
       -0.08923684 -0.18884858 0.0046049175 -0.06433297
000030 4f 19 b2 bc 6d 1d d6 bd 12 2d dc bb b3 d6 56 bd
       -0.021740584 -0.10454831 -0.00671924 -0.052450847
000040 a3 c4 d2 3d 1e ef 5a be f4 aa b8 bd ea 33 6d 3d
       0.10291412 -0.21380278 -0.09016982 0.057910837
000050 51 c2 81 bd bc a9 36 bd e6 f2 d9 3d 87 c9 0a bd
       -0.06335891 -0.044595465 0.10642032 -0.033883598
000060 27 9b d5 bb 94 36 82 3d 93 90 f2 bd b3 fe a4 bd
       -0.0065187397 0.06358066 -0.118439816 -0.080563925
000070 81 37 2b 3d 53 07 30 3c f0 d1 ac 3d da dd 9b 3c
       0.04180098 0.010743934 0.0843848 0.019026686
000080 04 a9 1e 3e 5a fe f5 3d c1 52 27 bd 2d a6 92 bd
       0.15494162 0.12011404 -0.040850405 -0.07160602
000090 71 d5 03 3d 2a 42 19 be bc 08 24 be d6 e6 60 3d
       0.032185975 -0.14966646 -0.16018957 0.054907642
0000a0 9c d2 c5 3c c7 e4 ea 3d 17 0d ab bd 71 0a dd 3d
       0.024148278 0.11469417 -0.08352106 0.10793007
0000b0 54 5e 08 be e3 70 e5 bd 8e ca 0d 3e b2 a6 d9 bd
       -0.13317233 -0.11203172 0.138468 -0.10627498
0000c0 cc c8 ea 3d 80 aa 47 3c a9 c6 29 be 49 33 08 3c
       0.1146408 0.012186646 -0.16579689 0.008313009
0000d0 fa 06 20 3d 6f 5a 94 3d 78 10 0e 3e 54 62 39 3d
       0.039069153 0.07243811 0.1387347 0.04525979
0000e0 0b bb 96 3d ee 84 45 ba c1 9b 7a bc 83 9d 06 3d
       0.07359894 -0.00075347617 -0.015295924 0.03286506
0000f0 27 4b 9a bc ed 89 93 3d 51 e8 12 bc 8a fc 8a 3d
       -0.018834664 0.07204042 -0.008966521 0.06786449
000100 de 8f 35 bd 50 14 04 be 56 85 88 3d a1 1b 0a be
       -0.044326656 -0.12898374 0.06666057 -0.13487102
000110 08 9b 6a 3d dc 3c 1c 3d f5 c5 ef bc e2 05 7e bd
       0.057276756 0.038143978 -0.029269198 -0.06201733
000120 9b 7d f7 ba ac d8 c2 3c a3 c2 2b be 1a ea c7 bc
       -0.0018882038 0.023784958 -0.16773467 -0.02440362
000130 e0 23 06 be 70 e5 07 be d0 7e 1c be db c6 31 be
       -0.13099623 -0.13271117 -0.1528275 -0.17361014
000140 ed 10 01 3e 10 58 02 3e 24 30 0b be 21 48 f5 bd
       0.12604113 0.12728906 -0.13592583 -0.11976648
000150 5f eb 08 3e f1 ea b2 3c b6 f4 a2 3d e2 66 77 3d
       0.13371037 0.021840544 0.07956831 0.06040085
000160 74 8d 48 bd ee 49 b7 bd f9 ae 8f 3c 00 87 3a be
       -0.048963025 -0.08949648 0.017539488 -0.18215561
000170 ab 1d 11 be 6c e1 73 3d 65 e4 66 bd 6e 33 b1 3a
       -0.14171474 0.05954115 -0.056370158 0.0013519356
000180 75 13 d1 3d 81 2c fa bd ae 13 ba bd 05 cc c9 bd
       0.10208789 -0.1221552 -0.09085785 -0.09853367
000190 09 65 1c be 8c 69 8f bd 0a b5 37 3e b7 cd b2 bb
       -0.15272917 -0.07002553 0.17940155 -0.005456652
0001a0 27 99 f5 3c 11 6d 95 bd 08 e2 48 3d 37 d6 0a be
       0.029980255 -0.072961934 0.049043685 -0.13558279
0001b0 7c fa f2 bc 1c 75 f6 3c bf e0 bf bd 22 fb 2c 3e
       -0.029660456 0.030085139 -0.09369039 0.16892675
0001c0 f7 8a 90 bd 41 0b 07 3e 87 c1 44 3e 7b 9d cd 3c
       -0.070577554 0.13187887 0.1921445 0.025099507
0001d0 7b 51 3f bd a0 a1 a0 3d a1 b0 60 3e bd 3a 15 be
       -0.046708565 0.078433275 0.21942379 -0.14573188
0001e0 6e c5 70 3c 8d fa 1e bd 49 92 be ba 17 96 38 be
       0.014695508 -0.038813163 -0.0014539446 -0.18026005
0001f0 d7 1e e1 bd 0a f9 2a be 8c db 1c 3d 9c 9f d7 3d
       -0.1099221 -0.16696563 0.038295314 0.1052849
000200 c9 b0 02 bd 92 d6 49 be a1 6a 83 bc f2 b0 f8 3b
       -0.031906877 -0.19710758 -0.016042056 0.007589453
000210 b2 95 9d bd 4c e0 1b 3d 31 30 b1 bd 59 07 c8 3d
       -0.07694568 0.038055703 -0.0865177 0.097670265
000220 63 e3 99 3d 54 54 ab 3d 29 32 80 bd f0 d3 41 3e
       0.07514074 0.08365694 -0.06259567 0.18928504
000230 de 18 5d bc 81 76 ea bd 77 5f cc 3d 7b 4c 5e 3e
       -0.013494698 -0.11448384 0.09979146 0.21708862
000240 57 bb e7 3c e3 15 ba 3d d5 2e c3 3d f7 1f bb 3d
       0.028287573 0.09086206 0.09530417 0.09136956
000250 83 88 b8 3d f4 8c 90 bd 57 2a 5a bd 6a 6f 9f bd
       0.090104125 -0.07058135 -0.053263035 -0.077849224
000260 fd 43 06 bc f4 02 fb bd f7 04 6a 3d d6 8c 94 bc
       -0.008194921 -0.12256423 0.05713364 -0.018133562
000270 3d 79 86 bd 9e 25 6a bd a7 78 db bd aa a6 92 3d
       -0.06566093 -0.05716478 -0.10716372 0.07160695
000280 4f 6f 3b be c3 d1 c3 3c 17 89 38 bc 4e 29 4c 3d
       -0.1830418 0.023903733 -0.0112631535 0.04984408
000290 d7 ee 27 be 65 1d e8 3c 9f f9 01 be a9 a2 b7 bd
       -0.16399704 0.028334329 -0.12692879 -0.08966572
0002a0 80 56 ed bd cc e0 34 be 04 28 d5 3c 04 de 34 3c
       -0.11588764 -0.17663878 0.026020057 0.011039261
0002b0 56 a5 d1 3d c9 bf de 3d 9b c2 b2 3d 7f 03 00 3d
       0.102366135 0.10876424 0.08728524 0.031253334
0002c0 69 09 af 3d a5 2d 84 3c 75 0b 25 be df d7 0e 3e
       0.08546717 0.016135046 -0.16117652 0.13949536
0002d0 77 18 11 38 07 25 32 bd 2a 57 78 bd b5 ab b9 3d
       3.459348e-05 -0.043492343 -0.06063 0.09065954
0002e0 01 45 a3 3d 23 ec 47 bd 18 24 69 bd 9c e1 b0 bd
       0.07972146 -0.048809182 -0.056919187 -0.086367816
0002f0 91 de bb 3d fd a7 43 bd 45 aa 16 be 75 ea fa bd
       0.091733105 -0.047767628 -0.1471339 -0.122517504
000300 93 26 84 3c 40 9c 2c 3e f6 cc 2c bd ed 62 dc 3d
       0.016131675 0.1685648 -0.042187653 0.10761056
000310 6e 47 23 be 69 70 0a be 82 17 22 bd ae 9d 20 be
       -0.15945217 -0.13519444 -0.0395732 -0.1568515
000320 f9 ac dd bd 00 8c 21 be f4 81 ad bd e9 2e 25 be
       -0.108240075 -0.15776062 -0.08472052 -0.16131176
000330 90 3b 71 3d 77 cf 96 39 1e ed 46 3d 4d 3d fb 3c
       0.058894694 0.00028764803 0.048565976 0.030668879
000340 ae 99 48 be 26 a4 cb bd 83 68 0d bd a1 e7 80 be
       -0.19589874 -0.09943418 -0.0345235 -0.2517672
000350 25 bd af 3d 1c 95 1e be c0 c9 c8 3d 82 63 1e 3e
       0.08580998 -0.15486568 0.09804106 0.15467647
000360 cd 7b 82 3d 71 b8 0d be 4e 0d c2 3d 86 69 1d be
       0.063712694 -0.1383989 0.09475194 -0.15372285
000370 57 74 05 bd 44 10 01 3e 9d 78 27 3e af 9a 17 3c
       -0.032581653 0.12603861 0.16354604 0.009253188
000380 22 15 7d bd 19 08 0d 3d be 71 ea bd 84 85 5f 3d
       -0.061787732 0.03443155 -0.11447476 0.05457069
000390 f3 1b 54 be 84 bc 0f bd 06 e1 b1 bd 38 f2 c8 3d
       -0.20713787 -0.035091892 -0.08685498 0.098118246
0003a0 ec 03 2a bd 1a 60 a3 3d 7a 06 6e bd a9 e1 d2 bd
       -0.041507646 0.07977314 -0.058111645 -0.102969475
0003b0 d0 be 4c be a5 de 0d 3e 32 f1 68 3d 4f d5 40 be
       -0.19994664 0.13854463 0.056870647 -0.18831371
0003c0 76 78 bc ba 04 10 9d 3c 3f f6 d7 bd 9b 64 13 3e
       -0.0014379162 0.019172676 -0.105450146 0.14393847
0003d0 ff 2b 10 bd b4 dc 07 bd 21 ed 3f 3e 6e a1 ef 3d
       -0.035198208 -0.033169463 0.18742801 0.11700712
0003e0 6d 66 0b be f2 5d 12 3d 40 98 dd bc 8f 07 d8 bd
       -0.13613291 0.035734124 -0.027050138 -0.10548317
0003f0 66 94 bc 3d b7 75 28 be c2 e0 14 be 82 bf 37 3d
       0.09207992 -0.16451155 -0.14538863 0.04486037

fc2.weight f4 [128, 260]
000000 9c 5b 6b 3b a2 82 ba bd cb 41 1b be a0 51 3f bd
       0.0035912758 -0.091069475 -0.15161817 -0.046708703
000010 71 94 12 be 12 0c 70 3d 6c 24 15 3e ac 2c 37 bd
       -0.14314438 0.05860526 0.14564675 -0.044720337
000020 dc e3 4b bd be 20 bc bc 42 e1 c8 bc 72 32 7d 3d
       -0.04977785 -0.022964831 -0.024521474 0.061815687
000030 b9 89 85 3b c5 60 7d bd 24 87 19 bd 7f 36 15 3e
       0.0040752557 -0.061859865 -0.037482396 0.1457157
000040 e6 e3 43 bd d6 0a 92 3c ad a2 8f 3d 28 bb 3f bd
       -0.047824763 0.017827433 0.0701345 -0.046809345
000050 a5 cd e0 bd 62 c7 e8 bd 16 13 c1 3d 09 3c 26 3d
       -0.109767236 -0.11366154 0.094274685 0.040584598
000060 d8 9d d9 bb be b1 70 3d 1b e2 39 bd 8c 1a 7b 3d
       -0.006641131 0.05876326 -0.045381647 0.061304614
000070 b1 39 13 bd 56 08 e8 bd 42 4a b7 3d d4 68 1b bc
       -0.03594369 -0.11329715 0.089497104 -0.009485442
000080 e4 63 ae bd b8 6f 33 3b 6a 77 f9 3c 27 e5 b5 3d
       -0.085151464 0.0027379822 0.030452449 0.08881598
000090 d0 09 eb 3d 79 bd fc bc 7e a4 7d bd ce e9 c4 bd
       0.11476481 -0.030852066 -0.06192445 -0.09614907
0000a0 af 2d 7a 3d 7c 0c 54 bd c3 15 3c 3d e7 6e 01 bd
       0.061078724 -0.05176972 0.04591919 -0.031599905
0000b0 d6 cb 60 bd c2 d3 2b be d2 7a d3 3c 7f 7e 0f be
       -0.054881893 -0.16779998 0.025815401 -0.14013098
0000c0 d3 41 2c 3d 48 3a c3 bc 1d a1 ea bb 2f 25 bc bd
       0.042054962 -0.023831502 -0.0071603195 -0.0918678
0000d0 ab e2 06 bd 5c c1 d6 bd e7 5e c1 3c 58 86 29 bd
       -0.03293101 -0.10486099 0.023604823 -0.041387886
0000e0 8e 9f 05 bd b8 d6 49 bd 84 2b a5 bc ec 81 19 be
       -0.032622866 -0.049277037 -0.020162351 -0.14990968
0000f0 b5 94 18 3d 45 7c 22 bd ca 08 aa 3d 00 b4 ab 3c
       0.037251193 -0.039669294 0.08302458 0.020959854
000100 29 c9 f1 bd 43 ba 81 3c af 03 64 be a5 ea 09 3d
       -0.118059464 0.015835887 -0.2226703 0.03367104
000110 99 5b f0 bc 6d d2 39 3d 29 37 8d bd 1d 31 1b 3d
       -0.029340552 0.045366693 -0.068952866 0.037888635
000120 0d c9 f3 3c 33 15 09 be a8 4f 2e 3e ff 9a a4 3c
       0.029758954 -0.13386993 0.17022574 0.02009344
000130 dc 4e eb 3d 18 28 02 3d be 60 c3 bd b3 40 7a 3d
       0.114896506 0.031776518 -0.095399365 0.06109686
000140 38 3f 2b be cc b5 89 3d 67 29 84 bd 2c 4e a4 3d
       -0.16723335 0.06724128 -0.06453209 0.080227226
000150 f6 aa 08 bc fe b1 78 3d 06 a6 af 3d c7 ac 83 3c
       -0.0083415415 0.06071662 0.08576588 0.016073598
000160 f3 6a a0 bd 9d e4 13 bc 5b 35 c7 bd e8 d0 dd bd
       -0.07832899 -0.009026674 -0.097269736 -0.10830861
000170 13 ea 8a bd ed 71 54 3d ef 80 26 bd df d7 1d 3d
       -0.06782927 0.05186646 -0.040650304 0.03853595
000180 84 97 db bd bd a0 ee bc 79 ff 19 3d ec f9 0e be
       -0.10722259 -0.02912938 0.037597153 -0.13962525
000190 a0 97 2c 3c 9e 44 17 bd 13 b4 1e bd 0d f6 16 bd
       0.010534197 -0.036930673 -0.03874595 -0.036855746
0001a0 6b 32 51 3d 86 66 d7 bc 74 0e cb 3d 84 2b 7d bd
       0.051073473 -0.026294004 0.09914866 -0.061809078
0001b0 51 8c 63 bc 19 74 74 3d 36 4f 99 bd 9f 8c c2 3b
       -0.0138884345 0.05968103 -0.074858114 0.0059371735
0001c0 33 08 57 bc 90 78 81 bd c9 cd 7a 3c bf 3a 62 3c
       -0.013124513 -0.063218236 0.015307852 0.0138079515
0001d0 95 41 0d b9 83 65 93 bd 80 ef a9 3d 26 31 eb bc
       -0.00013471239 -0.07197096 0.08297634 -0.02870996
0001e0 b8 6c e2 bd 95 2e 84 3d f7 fc 2b bc 2a 79 26 3b
       -0.11055893 0.06454197 -0.010497323 0.002540181
0001f0 68 9f 96 be e1 88 7c bd db 6d 02 3e 1d b7 8d 3c
       -0.29418492 -0.061653975 0.12737219 0.01729923
000200 bc ce f7 bd 2a 00 47 bd 7e 58 2a 3c ac b6 b1 ba
       -0.12099978 -0.04858414 0.010397075 -0.0013558469
000210 89 03 5c bc 61 a7 c2 bd 4b fb 53 bd 53 48 4b bb
       -0.013428577 -0.09504581 -0.051753324 -0.003101845
000220 8b d0 c0 3a 3e a0 81 be 78 36 c1 3d 9e 2b b5 3c
       0.0014710588 -0.25317568 0.09434217 0.022115525
000230 1c 0d a3 bd 32 e6 5b 3d 05 be 8f be 0b 74 fc 37
       -0.07961485 0.05368633 -0.2807466 3.0094778e-05
000240 6d 96 a1 3c 89 48 c9 bc db a7 8b 3a f9 d3 8f bd
       0.019725049 -0.02457072 0.0010654883 -0.070228525
000250 3f 0f 66 3c 47 24 82 3d e7 02 ba 3d 41 a8 b7 3d
       0.014041721 0.063545756 0.09082585 0.08967639
000260 83 54 f1 3c 62 ee 9e 3d 32 4e bf bc 3c b9 e2 bd
       0.029459244 0.07760312 -0.023352716 -0.11070487
000270 1b 95 88 be 83 bb 1a 3b 5f 57 bb bd b5 2b 7b bc
       -0.26676258 0.00236103 -0.09147524 -0.015330245
000280 3f f6 cd bd 0c 11 5e bd b6 bb 8e bd 79 95 4f be
       -0.10056733 -0.054215476 -0.06969397 -0.20271863
000290 1a 62 90 bc b5 8c 36 bd 99 f1 44 3d a0 f4 9a 3d
       -0.017624903 -0.044567782 0.048081968 0.0756619
0002a0 2d d8 b6 3c 27 6c 1c be 57 d3 70 bd cb 33 03 3e
       0.022319878 -0.15275632 -0.0587953 0.12812726
0002b0 4a 68 f9 3d dd 32 23 3d a3 f3 e0 3d d1 e1 13 3e
       0.12178095 0.03984343 0.1098397 0.14441611
0002c0 7b 9c aa 3d 36 bd 63 bc e2 2e 84 bd 22 6c c8 3d
       0.083306275 -0.013900092 -0.06454255 0.0978625
0002d0 87 2f 72 3d 51 20 e9 3a 7f eb 01 be 69 8d c8 bd
       0.059127357 0.001778612 -0.12687491 -0.09792597
0002e0 75 bc ab be d7 61 c3 bd 47 dd 1c bd 59 38 a0 bd
       -0.3354222 -0.09540146 -0.038296964 -0.078232475
0002f0 8d c2 e3 bc fc b1 34 bc 70 92 2e ba 0b 52 b1 3c
       -0.02780273 -0.011028763 -0.0006659394 0.021645566
000300 91 49 8a 3c 58 79 c3 bd bb 7b cc bd 97 55 12 3e
       0.016880782 -0.09544629 -0.09984537 0.14290462
000310 cc e8 7a bd 42 ef e7 bc 62 91 a5 3c 06 6e 82 3c
       -0.06125717 -0.02831233 0.020210925 0.015921604
000320 4e 51 f4 3c 17 b1 0a 3e b4 ec a8 bd f5 0a 7d bd
       0.029823925 0.13544117 -0.082482725 -0.061778028
000330 28 1c bf 3d 08 31 d6 bc 7f 62 09 bb 65 5d af 3c
       0.09331542 -0.026146427 -0.002096325 0.021406839
000340 ea 41 87 3d c6 c4 1e be ac 2c de bd 60 55 21 3d
       0.06604369 -0.1550475 -0.10848364 0.03938806
000350 54 1b 32 bd 90 2d 8d be 57 a7 86 3a cf 3e 20 3d
       -0.043483093 -0.27573824 0.001027326 0.0391224
000360 5d fe 55 bc 54 79 86 bd 3b 57 2d bd b7 37 96 3d
       -0.013061133 -0.0656611 -0.042319518 0.073348455
000370 1a 1c 67 bd 93 cd d0 bd b0 53 32 be 9a b9 c4 bd
       -0.056423284 -0.1019546 -0.17414737 -0.09605713
000380 58 89 c0 bc a0 9c 4f 3d 8b c0 f1 3d 99 9a 24 bd
       -0.02350299 0.05068648 0.11804303 -0.0401865
000390 4c db ac bc 6e 35 b5 3c cb 7f 31 bd 29 d6 9c bd
       -0.021100663 0.022120204 -0.043334763 -0.07658035
0003a0 2b f7 ec 3d 9b eb fb bb 79 b8 98 3d 66 a1 ea 3d
       0.11570581 -0.0076879985 0.0745706 0.114565656
0003b0 bc d2 d1 bc da 6b 10 3d 65 99 a6 3d e5 53 f5 3c
       -0.025613181 0.035259105 0.081347264 0.02994723
0003c0 9a 38 82 3d 20 d1 06 3c e5 7c ff 3c 89 ea 26 bd
       0.06358452 0.00822857 0.031187484 -0.040751014
0003d0 b6 7d 6b 3d 02 36 01 bd ec 3b 8e bd 57 7e a1 bd
       0.057492934 -0.031545646 -0.06945023 -0.078854255
0003e0 67 73 67 3d b4 69 c0 bd a2 af 06 3e 73 e3 d1 3d
       0.05650654 -0.09395161 0.13152936 0.102484606
0003f0 88 f5 5c 3d d5 16 c4 3d 84 4a c6 3c 6a c4 3d bc
       0.053945094 0.09574667 0.024205454 -0.011582473

fc2.bias f4 [128]
000000 02 1c 46 bd bb 77 f7 3c 40 11 3c bd ad 22 8c 3d
       -0.048366554 0.03020846 -0.04591489 0.068425514
000010 5b 87 03 3d 11 ea f3 3c d6 18 71 3d 93 0f df bc
       0.032111507 0.029774697 0.058861576 -0.027229106
000020 5e bc a0 3d 59 9d 50 3c 9e 76 e1 3c a6 96 3a bd
       0.07848428 0.012732827 0.027522381 -0.045553826
000030 8a e5 ac bd 51 50 12 3d f7 2c 99 bc 50 69 9c bd
       -0.084422186 0.035721127 -0.018698199 -0.07637274
000040 fc db 95 3d e0 9f 3a 3c 78 a2 7f bd 50 90 d8 3d
       0.07317349 0.011390656 -0.0624108 0.105744004
000050 5a 1f fd 3d c7 a7 60 bd 57 a9 a4 3c ff 2e e6 3c
       0.123594955 -0.054847505 0.020100279 0.028098581
000060 a0 16 18 3d 77 00 1c bc 96 79 40 3d 38 bb 09 3e
       0.037130952 -0.009521595 0.046990953 0.13450325
000070 43 be 15 bd 6c ae d2 3d 24 48 98 3b c7 68 41 3d
       -0.0365584 0.102871746 0.0046472717 0.047219064
000080 a9 70 c2 3c 1f 5b 15 3e a2 d8 a0 bd 50 72 4b 3c
       0.023735361 0.14585541 -0.078538194 0.012417391
000090 a9 e9 a4 bd 57 72 70 3d 09 bf 2d 3d 11 14 1b bd
       -0.0805238 0.058702793 0.042418513 -0.037860934
0000a0 d6 68 58 3d f9 a6 bb bb 3e 17 03 bd 67 12 6e ba
       0.052834354 -0.005726692 -0.032004587 -0.00090817217
0000b0 d6 c3 24 bd fa 13 8f bb a7 90 98 3d 57 4c 2a 3d
       -0.040225826 -0.004366395 0.07449465 0.04157671
0000c0 a4 93 52 bd 6f 88 b8 3d a8 f4 83 bd 30 2a e5 3d
       -0.051410332 0.09010398 -0.06443149 0.11189687
0000d0 96 89 de 3d a9 8a d0 bd c3 37 8e 3d ee dd 65 bd
       0.10866086 -0.10182697 0.069442295 -0.05611985
0000e0 7f 50 55 3d e9 59 bf 3c 9b 96 ba bc 30 ae d3 3d
       0.05207872 0.023358302 -0.022776892 0.10335958
0000f0 07 d7 6f bc 4e c4 ca bc 4d 23 90 bd 57 1c 86 bb
       -0.014638669 -0.024751808 -0.07037983 -0.004092734
000100 9b a6 9e bc 72 e1 bd bb 3f d5 53 3d 95 ce 05 3d
       -0.019366553 -0.0057946974 0.05171704 0.032667715
000110 84 ae d9 3d bd d7 3d bd 25 18 13 bd 9d e2 99 3d
       0.10628989 -0.046348322 -0.035911698 0.07513926
000120 5d da d9 bd 4f 21 f4 3b 33 da 86 3d 5c 9c df bc
       -0.106373526 0.0074502598 0.06584587 -0.027296238
000130 1b 00 9c bb 4c c0 55 bd 7a 7c 27 bc 17 54 52 3c
       -0.0047607548 -0.05218534 -0.010222549 0.012837431
000140 3b 91 e6 bc ed 43 01 bd 75 92 0d 3e e4 ff be 3c
       -0.028145423 -0.03155892 0.138254 0.023315378
000150 c7 16 d2 3b e2 5f d3 bb 78 c6 a0 3a fe 91 b1 bd
       0.0064114067 -0.006450639 0.001226618 -0.08670424
000160 38 e9 31 3c 74 82 33 3d 78 64 4c bb 22 18 95 bd
       0.010858826 0.04382558 -0.0031187814 -0.072799936
000170 2e ec 72 3d 63 30 cc bd 8b 91 45 3c b1 00 7c 3d
       0.05930727 -0.099701665 0.012058626 0.061524097
000180 b1 93 23 3e 06 01 8b bd 51 0f 42 3b 1d d8 cf bd
       0.15974309 -0.067873046 0.002961118 -0.10148642
000190 04 fb 3f bc de ae b7 bb 49 69 a2 3d 2d 77 07 3e
       -0.011717562 -0.0056055626 0.07930238 0.13229056
0001a0 1c 1c fb bc c3 43 cb 3d d1 8d 0e 3d 40 34 c0 3a
       -0.030653052 0.09925034 0.034803215 0.0014664009
0001b0 b8 0a 24 3e 9b 14 0b bd 8d 8e 05 3d ef ea d0 3d
       0.16019714 -0.033955198 0.03260665 0.1020106
0001c0 d1 07 06 3e 70 7f 89 bd 7d e9 bc 3c 8c 45 8b bd
       0.13088919 -0.0671376 0.023060555 -0.068003744
0001d0 0f 7f ff 3d e9 00 bb bc a9 2f b7 3d ac ef 7d 3d
       0.124754064 -0.022827582 0.08944637 0.061996147
0001e0 27 02 c3 3d 32 07 23 3e 55 95 1a bc ce 3a 86 3d
       0.09521895 0.15920714 -0.009435018 0.06554185
0001f0 b6 5d 63 bd 79 b9 ad bc 29 a1 a5 bd cb d2 59 3d
       -0.05550929 -0.021206604 -0.080873795 0.053179543

fc3.weight f4 [1, 128]
000000 52 3d 8b be d4 69 23 3e 05 c0 a2 bd 0e 5e 8f 3d
       -0.2719522 0.15958339 -0.07946781 0.070003614
000010 9a 5e a9 3d dd 08 dc 3d db 86 f9 3d d0 87 1f be
       0.08269997 0.10743878 0.12183925 -0.15579152
000020 e4 e1 b4 3d df 7c e0 3d 25 87 4b 3d dd 1e 28 bd
       0.08832148 0.10961317 0.04968943 -0.04104506
000030 d0 d7 26 be ce 07 88 3d 6d e6 08 be a0 90 e2 bd
       -0.16293263 0.066421136 -0.1336915 -0.11062741
000040 2a 09 95 3d 3d 87 c5 bd e8 52 bb bd 5e 5d 61 3e
       0.072771385 -0.09644935 -0.091466725 0.22008273
000050 7c 66 4a 3d a4 fc 7a bd 43 d6 28 be cc c5 d9 bd
       0.049414143 -0.061276093 -0.16487984 -0.1063343
000060 75 ac 8b 3d 3e 12 6c 3d 58 c1 7f 3d 25 70 8b 3d
       0.06820003 0.057634585 0.062440246 0.06808499
000070 3e 10 d2 bd 0b da 76 3d 93 c6 1f 3e 07 80 a6 3d
       -0.10257004 0.060266536 0.15603094 0.08129888
000080 be 74 81 3d 64 32 88 3d 82 39 57 be 24 28 04 bd
       0.06321095 0.06650236 -0.21018031 -0.032264844
000090 b1 99 86 be 21 e8 89 3e f6 bb 5d 3d 1c 0c f7 bd
       -0.26289132 0.26934913 0.05413433 -0.120628566
0000a0 7e f8 ed 3d 7a df 98 be 35 3e 5b be 3e 6f 4d bd
       0.11619662 -0.29858 -0.21410449 -0.050154917
0000b0 d8 17 21 be 06 84 17 be 1d 7a 95 3d c0 76 60 3d
       -0.15731752 -0.14796457 0.07298682 0.05480075
0000c0 1c b8 b2 bd 0c 53 fa 3d a8 45 42 be 21 b5 53 3d
       -0.08726522 0.12222871 -0.18971884 0.05168641
0000d0 d1 3d 9d 3d d6 e0 5b be 2f d7 9a 3d 8f 1f af be
       0.07677806 -0.21472487 0.07560574 -0.34203765
0000e0 0b 60 7d 3d c9 e6 56 3d 91 1b ae bd 7c 5c 88 3d
       0.06185917 0.052466188 -0.085013516 0.06658265
0000f0 3f 56 b7 3d d6 eb 9c be 1d 20 80 be 27 a9 32 be
       0.08951997 -0.3064868 -0.250245 -0.17447339
000100 2c f9 8b bd 22 b2 9f bd e7 f5 67 3d 9c 19 d1 3d
       -0.06834635 -0.07797648 0.056630995 0.10209963
000110 06 e2 79 3d ac 18 fb bd 4a a9 b8 bd 0f 46 02 3d
       0.06100657 -0.12260565 -0.09016664 0.031805094
000120 50 d2 49 be 6c 94 f6 bd 2a 48 ad 3d 2c 71 e6 bd
       -0.19709134 -0.12040028 0.0846103 -0.112520546
000130 ca 16 8d 3d b1 58 11 be 1e eb e8 3d 4b a2 db 3d
       0.06889112 -0.1419399 0.1137297 0.10724314
000140 ad b2 7d bd db b3 2b 3e 72 0a 39 3d f8 03 97 be
       -0.061937977 0.16767828 0.045175977 -0.29495215
000150 77 c5 62 be 44 58 dd bd 0c 54 b3 bd 32 c9 37 be
       -0.2214564 -0.10807851 -0.08756265 -0.17947844
000160 78 8e 6e 3d e6 84 4b be bf 48 02 3e ad 76 8c bd
       0.058241338 -0.19874915 0.12723063 -0.06858573
000170 d3 e1 a2 3d a6 1c 41 be dd b6 59 be b7 db c1 3d
       0.07953229 -0.18858585 -0.21261163 0.094657354
000180 b2 35 64 3d d4 e3 b9 bd 31 01 a1 3d 89 ac 9a bd
       0.05571527 -0.09076658 0.07861555 -0.0755244
000190 eb 8d f5 bd 24 91 f9 bd 14 48 c2 3d a1 4d af 3d
       -0.11989959 -0.121858865 0.09486404 0.085597284
0001a0 e5 20 8f bd 5c 84 9f 3d 2b 5f 71 3d d8 a5 0b 3e
       -0.06988696 0.077889174 0.05892865 0.13637483
0001b0 7f 5f 8e 3d 1d 0b 82 be 41 d8 92 be e7 61 33 3e
       0.06951808 -0.25399104 -0.28680614 0.17517816
0001c0 51 34 3b 3e 79 9e 83 bd 7a 74 fa bd 83 23 f9 bd
       0.18281676 -0.06426711 -0.122292474 -0.121649764
0001d0 2d f5 08 3e b7 d2 a2 3d 33 44 e2 3d d7 79 3d 3d
       0.13374777 0.07950347 0.11048164 0.046258774
0001e0 b3 17 0d 3e ea 1d 88 3d c6 fb 15 3e 47 51 2f 3d
       0.13778572 0.06646331 0.14646825 0.04280212
0001f0 38 79 9f bd 23 52 72 be 87 6f 7e be d2 85 3d 3e
       -0.077867925 -0.23664145 -0.24847232 0.1850808
